source/q-learning_model.pth (torch, 90639 bytes, 27 tensors)

weight f4 [8, 1, 3, 3]
00000000: 0fb1 4dbe e3f4 a23d 178c ff3c f9cd 90bd
00000010: 2fa5 9b3c 05bd b43e d8f7 cd3d dfe0 a13e
00000020: 6095 72be 32f2 71be 43c3 8f3e 77f8 a33e
00000030: 2e7c e1bd 11f3 823e f891 593e d481 91be
00000040: 8bdf 43be 0dd5 a23e 33b2 8fbe 1249 e6bd
00000050: 6d1c 863e df41 363e ecb7 923e 5579 04be
00000060: f6c6 9d3c dd03 803e 70e7 9c3e 1acf d23b
00000070: c8f8 863e 5a59 4dbd 4a5e 6d3e 97c6 95be
00000080: 97f1 643e 1326 a83e 7635 813e 1ae1 933e
00000090: 876f b23e b234 d6bd 7c4e 86be 3abd 223d
000000a0: 52b5 9abe 12de 93be f763 2b3e 05b9 90be
000000b0: 23a7 3c3e 408e 99be 21ab 7abe 12a7 2fbe
000000c0: 6acc 2f3d 4fca 093e 665b bc3d 364e 503e
000000d0: 309b 58bd d756 58be 66b8 40be 9bae 3f3d
000000e0: 568a 603e 7299 3d3e 2142 7cbe 2aba 12be
000000f0: e73e bf3d 8dee cb3c b031 68be a122 aa3e
00000100: 5403 21bd 1e0c e53d 5e46 143e 97e6 1b3d
00000110: 74c4 0d3d 278d ec3d dae4 31bd 3fae 673e
-0.20087074 0.07956865 0.03119473 -0.07070536 0.018999664 0.3530046 0.10057038 0.31616876
-0.23689795 -0.23627546 0.2807866 0.320255 -0.110100135 0.2557607 0.21247089 -0.28419363
-0.19128244 0.3180317 -0.28065643 -0.11244406 0.26193562 0.17798565 0.28655946 -0.1293691
0.019259911 0.25002947 0.30645323 0.00643338 0.2636168 -0.05013404 0.231805 -0.29253075
0.22357784 0.32841548 0.252361 0.28882676 0.34850714 -0.104592696 -0.26231754 0.03973124
-0.3021646 -0.28880364 0.16737352 -0.2826616 0.18423133 -0.2999134 -0.24479343 -0.17153576
0.042919554 0.13456081 0.0919712 0.20342335 -0.052882373 -0.21126877 -0.18820342 0.046797376
0.21927771 0.18515566 -0.24634601 -0.14328828 0.093381695 0.024894023 -0.22675204 0.33229545
-0.039309815 0.11183952 0.14479968 0.038061704 0.03461118 0.1155036 -0.04343114 0.22625063

weight f4 [8]
00000000: fd8b 803f c00c 7e3f b3fc 803f 909a 7f3f
00000010: a911 7e3f f1eb 7f3f e13f 7e3f 1376 813f
1.0042721 0.99238205 1.0077118 0.9984522 0.992457 0.99969393 0.9931622 1.0114158

bias f4 [8]
00000000: af64 dd3a 00aa 84ba d252 843b 7377 64b9
00000010: 40a9 29bc 83c2 8c3b f26a a8bb a8fe 883b
0.0016890968 -0.0010121465 0.0040381933 -0.00021788273 -0.010355294 0.0042956485 -0.005139702 0.004180748

running_mean f4 [8]
00000000: 70bc b53d 7718 003e 5ac8 353e 6c1d 943e
00000010: 79e7 e4bd 1209 eebd 8ceb 59bd 2cdb 5a3e
0.08873832 0.12509333 0.1775221 0.28928697 -0.111769624 -0.11622824 -0.05320315 0.2137267

running_var f4 [8]
00000000: cc5e a93b 9b77 c03c def7 8a3c e324 103d
00000010: b98c 683c c6a7 d33b 9893 043b 0d34 993c
0.0051687714 0.023494532 0.016963895 0.035191428 0.014193707 0.006459209 0.0020229574 0.018701578

weight f4 [8, 8, 3, 3]
00000000: 3cdf d83c ea76 16bd 5d76 f53d 62da e9bb
00000010: 9a56 00bc be8d 92bd 0334 993d e2e0 79bc
00000020: 7a39 a3bd a3aa ba3c 70e9 31bd 7721 1e3d
00000030: 108e c1bc d7c4 f23d 5450 14bd dff2 c6bb
00000040: 6293 b1bc 4884 af3d c2bf e23c b9b2 443d
00000050: 40b3 263b 4650 83bd db99 343d 78bc eb3d
00000060: a30f a53d f7a6 99bd 2af5 42bd 67db cbbd
00000070: 6a67 883c d483 a23d 51d1 11bd f1e2 32bd
00000080: 98af dd3d fa77 be3d f199 96bc e1cf 983d
00000090: 373a 4dbc 0361 8a3c fb3a a53d 1922 35bd
000000a0: a6af b63d 8f2b e63c df5b c6bd 9df1 bb3a
000000b0: 3e0f efbd 0c42 a1bc 2410 633d ec8b be3d
000000c0: 8b9a 87bc e172 643c bac0 cd3d 4251 2abc
000000d0: 04b3 6fbd 72ad 093d 0f88 4ebc c34a d83c
000000e0: deec 9bbd 7cbb d53a 5b5f 833d 1522 2abd
000000f0: 14cb 983d a720 3cbd 5831 3c3d a768 b53d
00000100: 01b3 d73d 8b85 433d d25e a53d cec6 283d
00000110: f52b fb3c cfc2 1ebd d054 3ebd 91c0 9fbb
00000120: f71b bebb e4f0 95bc 14e9 ed3d 17a5 683d
00000130: f88b cd3c f856 d9bd e124 ee3d d19b 2bbd
00000140: 2ed5 35bc 764c 94bd 44ec 843d 50a8 91bd
00000150: f9e2 cabb 6234 d13c e510 6e3d e090 d23b
00000160: fe6a 813c 1186 c53d 7062 223d a5a9 ca3d
00000170: 3788 7e3a 5ec3 e13d dd87 933d 96ba c93c
00000180: a8bc 403c 4390 95bd 4822 f93d 26d8 943c
00000190: 1046 033e 8f45 e0bd bb27 58bd 9ca5 9dbd
000001a0: 9465 61bd 164a adbd 6dd7 d23b 6242 a1bd
000001b0: 042e ebbd c354 573d d287 dd3d 2a06 cdbd
000001c0: 94d1 043d e8dd be3d 6324 14bd 9a98 02bd
000001d0: e300 be3c d7df 0bbd 6cad 5dbd e4e0 52bd
000001e0: a55e 3bbd 6765 81bd a588 61bd 84f5 bd3b
000001f0: d46c e53b adfc 173d 85d3 c7bc 2dcb 843d
00000200: 1d5f 86bd f6c6 293c f1c0 8a3d f5ce d13c
00000210: 2f14 48bd d364 1a3d 427d d13d a6ab a83d
00000220: 06c8 a2bd be56 f33d e888 923d 42c2 d03a
00000230: 93f1 a2bc 4c94 043e 0100 a13d a4a7 b839
00000240: 40a3 d6bc 8938 843d 3ad8 8d3d 7839 27bd
00000250: 4a4f f23d 6e2e c13c 5a55 c83d 3a25 353c
00000260: c6cf dabc 2d53 863d 3ca7 c43d c1e3 10bd
00000270: f4c9 c6bd 761f 33bc 51de 9b3c f101 aebd
00000280: 444f 793d e653 02bd 5c5e 1ebc 6890 873d
00000290: 0be9 babd aab1 03bd beb4 b6bd 02de 023e
000002a0: ded7 c73c bac7 23bd c2c3 f93c 1c4d ba3c
000002b0: 9fac b33d 492a 933d b65e 14bd c9c3 9bba
000002c0: f6f8 883d 52f9 15bd 9a81 bc3d 366e 34bd
000002d0: dc18 973c 9726 5e3d 497c c8bb 4f48 953d
000002e0: 01fd 133d 93ba adbd 8b33 cc3d 8ca2 ce3d
000002f0: 8ebb 113d 8bce efbd cb33 aabd 42ed 8bbc
00000300: 6b0e df3d f03c 843d cfeb d8bd a2cd adbd
00000310: ab63 bfbd d4b5 b63d 625e b23d 68a6 703c
00000320: a6cb 82bd e87f 823d af9a d13d 9dea 0abd
00000330: 3167 75bd a63f efbc d477 59bb a9e8 e53a
00000340: 6198 f93d 2a76 2c3d 9214 913d f17a 5b3b
00000350: 7eb3 853b c4eb 223d 8acc 9e3c 5e2a 5dbd
00000360: 8a5f 9f3b e698 d3ba 1701 473d c00d f1bd
00000370: 1f9b e4bc 216b 8cbd 4339 62bd e75b d4bd
00000380: 0a78 d7bc 0c90 c63d 56c3 6a3c 6ee6 4f3d
00000390: bc83 123c 330e cebd 0afd 663d bd7e 743d
000003a0: be70 a53d a39a 13bd 7ae1 ffbd a231 9cbd
000003b0: 8f98 c7bd 3600 c53d 6fd7 8d3a bada 5bbd
000003c0: afa8 d3bd 8a40 a63d 4199 a1bd 6548 033d
000003d0: 9662 43bd 3692 5c3d f694 b43d ec24 993d
000003e0: 0706 54bd b2a8 9dbd f2fe dbbd e2ac 9a3d
000003f0: db96 09bd 6f31 52bb e286 b83d 3458 1dbd
0.026473634 -0.0367345 0.11985467 -0.007136629 -0.007833147 -0.071559414 0.074806236 -0.01525137
-0.07969947 0.022786444 -0.043435514 0.038606133 -0.023627311 0.118539505 -0.03620942 -0.006071433
-0.021676723 0.085701525 0.027679328 0.048022006 0.0025436431 -0.06411795 0.04409204 0.11510557
0.08059623 -0.07502549 -0.047597088 -0.09953957 0.016650874 0.079353005 -0.03560001 -0.04367346
0.108245075 0.093002275 -0.018383952 0.07461525 -0.0125260865 0.016891962 0.0806789 -0.04422197
0.08920221 0.028096942 -0.09685492 0.0014338974 -0.11672829 -0.019684814 0.055435315 0.09304032
-0.016553184 0.013943405 0.10046525 -0.01039535 -0.058520332 0.033612676 -0.012605681 0.026402837
-0.07613538 0.0016306485 0.06414672 -0.04153641 0.07460609 -0.045929577 0.045945495 0.088578515
0.10532189 0.04773478 0.08074726 0.04120522 0.030660609 -0.038760003 -0.046467602 -0.0048752506
-0.0058016735 -0.018303342 0.11616722 0.056798067 0.025091156 -0.10612291 0.11628128 -0.041896645
-0.011098189 -0.07241146 0.064903766 -0.07112181 -0.006191608 0.025537673 0.05812158 0.006425962
0.015798088 0.09644712 0.03964466 0.098956384 0.00097096286 0.110235915 0.07203648 0.024625104
0.011763729 -0.07302906 0.12164742 0.018169474 0.12819695 -0.10950767 -0.052772265 -0.07697603
-0.055028513 -0.084613964 0.006434372 -0.0787399 -0.11483386 0.05257107 0.10816921 -0.10010941
0.03242643 0.09319669 -0.036167514 -0.031883813 0.023193782 -0.034149017 -0.054120466 -0.051484004
-0.045744557 -0.06318169 -0.055061955 0.00579709 0.0070014987 0.037106205 -0.024392853 0.06484065
-0.0656111 0.010362377 0.06775082 0.02561138 -0.048847374 0.03769381 0.10228969 0.08235864
-0.07948308 0.11881779 0.07155019 0.0015927034 -0.019890582 0.12947196 0.07861329 0.00035220117
-0.02620089 0.06456096 0.069260076 -0.04082629 0.118315294 0.02358171 0.097819045 0.011056239
-0.026710402 0.06558833 0.0960221 -0.035373453 -0.09706488 -0.010932794 0.019026907 -0.08496464
0.06086661 -0.031818293 -0.009666052 0.0661934 -0.09126481 -0.032151856 -0.089211926 0.12780002
0.024394926 -0.039985396 0.030488852 0.022741847 0.08773159 0.071858 -0.036223136 -0.001188391
0.066881105 -0.036614724 0.09204407 -0.044050418 0.018444471 0.05423602 -0.0061183316 0.072891824
0.036129955 -0.08482852 0.099707685 0.10089597 0.035579257 -0.11709317 -0.0831066 -0.017080907
0.10891422 0.064569354 -0.10591852 -0.08486487 -0.09345182 0.089214 0.08709408 0.014688112
-0.06386499 0.063720524 0.10234582 -0.03391515 -0.059912864 -0.029205155 -0.0033182995 0.0017540652
0.12187267 0.042104878 0.070840016 0.0033490027 0.004080235 0.039775625 0.019384641 -0.053995483
0.004863684 -0.001614359 0.048585024 -0.11770201 -0.027905999 -0.06856371 -0.05523039 -0.103690915
-0.026302356 0.096954435 0.014328798 0.050756864 0.008942541 -0.10061302 0.05639366 0.05969118
0.080781445 -0.036036145 -0.12494178 -0.07626654 -0.09745895 0.09619181 0.001082165 -0.05367539
-0.10334908 0.081177786 -0.07890559 0.032051463 -0.04770144 0.053850375 0.088174745 0.074777454
-0.05176356 -0.07698192 -0.10741986 0.07552506 -0.033591133 -0.0032072922 0.09010102 -0.038414195

weight f4 [8]
00000000: d4b3 803f 0f31 813f 511e 803f 0077 7e3f
00000010: 8229 7f3f 0e5d 7f3f 12bb 7f3f 033a 7f3f
1.0054879 1.0093096 1.0009252 0.9940033 0.9967271 0.99751365 0.9989482 0.99697894

bias f4 [8]
00000000: bf72 243a 417f 3e3b 2427 15bb d465 ff3a
00000010: b60c d63a 5a10 29bb e46e 5aba 1f13 a6ba
0.0006273202 0.0029067548 -0.0022758925 0.0019485303 0.0016330692 -0.00257971 -0.0008332564 -0.0012670493

running_mean f4 [8]
00000000: 00b7 b13e 103c 9a3e 19f3 c23e 5e4c e8be
00000010: c631 ad3e 818b 2abd 285a 873d 2be7 c13e
0.3470993 0.3012395 0.38076094 -0.45370764 0.33827037 -0.041636948 0.06608993 0.3787168

running_var f4 [8]
00000000: b8dc a53d 2e0a 873e cc6b ed3d c88a 0c3e
00000010: da20 df3d ac47 833e 5df1 e33d 244b 0b3e
0.080987394 0.26374954 0.11592826 0.13724816 0.10894938 0.2564062 0.11130021 0.13602883

weight f4 [8, 8, 3, 3]
00000000: 1909 9ebd 5cfd 153d 09f7 e83c dfdc 47bd
00000010: ab38 c63a e783 5f3c 90bd a73d e1ad bb3d
00000020: ae46 223d 119c 9f3d 98fe f53c c42e 613c
00000030: 20f9 643d 5b2b 03bd 0a93 783d 83c8 cb3d
00000040: 3c11 ff3d b9a4 1dbd bd26 e23d 2649 d83d
00000050: 3921 453d f1bc abbc c559 86bc 515b e83c
00000060: 55e2 99bd f94c 953d e6fe bc3d a4c3 8abd
00000070: 117f b9bd 7b52 233d cd3a 88bc 8c5f b9bd
00000080: f873 65bd a6e3 acbd b450 86bd 5422 12bd
00000090: ae74 813d 7047 fcbc e7b2 87bd 3823 413d
000000a0: cbfd a83c 28ec 17bc 69d9 663d eec8 b93d
000000b0: 5e22 2c3d bfe8 533d 4efd 243c d5b4 473d
000000c0: c27c b13c 590c ddbd 5a59 e9bd 38b0 073d
000000d0: 045c f23b dcb5 b83c c560 da3b f3b7 a3bd
000000e0: 5af2 4dbd 7214 bf3d 7718 333d d39a 383d
000000f0: d714 d43d 676f 1ebd 105e bfbd 4910 ffbc
00000100: 1cd5 ccbd d665 ab3d 47d9 75bd 48d9 de3c
00000110: 2233 bfbd 7379 72bd f706 94bc 67be 46bd
00000120: 83e8 983d 792f 81bd bcd2 1bbd 718b b63d
00000130: f9e6 44bd 8770 cabd 7b3b 91bd b036 c83c
00000140: eec8 cdbd 32d8 71ba b865 503d c2e6 073d
00000150: dddb f0bc a0ff 1dbd 6831 82bd 0c3a 0d3d
00000160: 856f f53d 9947 cfbd e1d9 223d 4f89 2abd
00000170: 471e 183c 770b ac3d 438e b8bd 3aeb f93d
00000180: 273a 62bd 42e6 f03c 50e5 5b3c 4cc6 ef3c
00000190: 28de 85bc 002a 783d 7590 b13d d7bc 73bd
000001a0: 573b 963d df8d 00be c8db d7bd 227e af3d
000001b0: fe28 ad3d d0d2 ad3d bf95 b23d 0a26 3d3d
000001c0: 667e a6bc 112d 7f3d dd36 81bc 96a3 033a
000001d0: 0c75 063d c667 c4bc ab57 59bd f388 313d
000001e0: 928e f83a 88c1 1c3c 27b5 20bd d89d ebbd
000001f0: 6108 c43d d514 92bc 471e 6e3d 8033 493d
00000200: 2b6b a93d a884 563d 67b5 8a3d ab1f 393d
00000210: 6476 bdbc 1461 96bd 3aea 93bd ef90 8a3d
00000220: 4c67 123d 7ecd d23b ccc7 8cbd a65c c13d
00000230: e9a3 153c a499 013e 5c4b 2ebc 59ae fdbc
00000240: b438 57bd 9326 923d 28d0 f53c 586f 913c
00000250: 2c71 b13d b150 b7bd 95ad 21bc 16ac 33bd
00000260: b0d2 de3c 7cf1 78bc 0dfa 903c 63bf c0bd
00000270: ae5b 553d 66ca d4bd 3cd8 60bd 7ac6 f0bd
00000280: d0bf b33d b1c2 b8bd 190d 9ebd e7c2 e8bd
00000290: 2688 a73c 260b 1ebd effe 063d f9fa 8c3d
000002a0: 059e a83d 1a4b cdbc bcf4 87bd 8b5c 8bbd
000002b0: 4fe3 8dbd 60d8 b8bd dcb6 1c3d 6ae8 1b3b
000002c0: 338c c1bb 9f67 553d a41e a4bc 7437 e93d
000002d0: 8b55 ddbd e1ce e7bd 7c74 f0bc 06c9 87bd
000002e0: 350c babd 03ee 403d 2fab 163d 3b11 b33d
000002f0: 18b6 a0bd d4fc 3e3d 4f85 6cbd 4c3c c73d
00000300: c770 6ebd dccc e5bd bd4b 91bc 2c15 6e3d
00000310: 000f bb3d bfd8 1dbb 8f18 9b3d 8a34 ebbb
00000320: 0014 84bc 47d0 9dbd aaa3 d13d af0b 2d3b
00000330: b2ee f5bd 3882 793d d051 923d 2d29 aabd
00000340: 6fab 9e3a f5c6 a5bd 39b8 b1bd 42bb d7bd
00000350: f1fb 87bc b2c3 bd3d 7407 dfbd 7313 3bbd
00000360: 15d3 823d a67c 9bbb 03c3 273d 901c 3abb
00000370: 2229 18bd 9d2d 15bd 1ded 31bd 4b62 e9bd
00000380: f78a dbbd 1734 9a3d 8304 8abd 4d20 bdbc
00000390: cdab a63d 5f6a 63bd 2325 ae3c 7c1b 9fbd
000003a0: e652 2dbd e3fe bbbd 5c87 b3bd f3b4 d93b
000003b0: ea75 b8bd 13a1 bd3d 4ab5 eebd 1c2c dabd
000003c0: cdb2 c7bd 444d 8b3d f455 553d 80e4 47bd
000003d0: b1b4 dc3b a3a4 d83c a634 ce3c 1085 263d
000003e0: b302 963c 36be aebd adf1 d7bd 4c78 bf3d
000003f0: a11d cdbd 1426 3fbd 363d 893d b3f0 9bbc
-0.07716579 0.036618575 0.028438108 -0.048794623 0.001512309 0.013642288 0.08190453 0.09164024
0.039618187 0.07793439 0.030028626 0.01374406 0.055901647 -0.03202377 0.060687102 0.09950354
0.12454459 -0.03848717 0.11042545 0.10560827 0.048127387 -0.020964118 -0.016400227 0.028363856
-0.075138725 0.07290072 0.092283055 -0.06775597 -0.09057439 0.03987358 -0.0166296 -0.09051427
-0.0560188 -0.08441858 -0.06558362 -0.03567727 0.06321083 -0.030795783 -0.0662592 0.047152728
0.02062883 -0.009272613 0.056359682 0.090715274 0.042024963 0.051735636 0.010070158 0.04875644
0.021665934 -0.10793371 -0.113939956 0.03312704 0.007396223 0.022547655 0.006664368 -0.0799407
-0.050279953 0.093300715 0.043724503 0.045069527 0.103555374 -0.03868046 -0.09344113 -0.031135695
-0.10001585 0.08369033 -0.060021665 0.027203217 -0.09335925 -0.059197854 -0.018069727 -0.048521426
0.07466223 -0.06307883 -0.03804277 0.08913315 -0.048071835 -0.09884744 -0.07091423 0.02444014
-0.1004809 -0.0009225636 0.050878257 0.033179052 -0.029401714 -0.03857386 -0.0635708 0.034479186
0.11984161 -0.10121078 0.039758567 -0.041634854 0.009284562 0.08400624 -0.09011509 0.12203069
-0.05523124 0.02940667 0.013421372 0.02926936 -0.016341284 0.06058693 0.08670131 -0.059506264
0.07335537 -0.1255412 -0.10539967 0.0856898 0.08455084 0.08487475 0.08719968 0.046178855
-0.020323943 0.062298838 -0.015773231 0.00050216296 0.03282647 -0.023975264 -0.053062122 0.043343496
0.0018963388 0.009567626 -0.03923526 -0.11504716 0.09571911 -0.0178322 0.058134343 0.04912138
0.08272394 0.052372605 0.06772881 0.045196217 -0.023127742 -0.07342735 -0.072224095 0.06765925
0.035743043 0.006433188 -0.06874046 0.094414994 0.0091333175 0.12656265 -0.010638084 -0.030966925
-0.05254431 0.07136264 0.030006483 0.017753288 0.08664164 -0.089509375 -0.009868045 -0.043865286
0.027200073 -0.015194293 0.017697359 -0.09411504 0.052089386 -0.10390167 -0.054893717 -0.117566064
0.0877682 -0.090215094 -0.07717342 -0.113653 0.020450663 -0.03858485 0.032957967 0.06883807
0.08233265 -0.025060225 -0.06638476 -0.068047605 -0.06928121 -0.09025645 0.038260326 0.0023789653
-0.0059066056 0.052100774 -0.020034142 0.1138753 -0.10807332 -0.11318756 -0.02935242 -0.06630139
-0.090843596 0.047101986 0.036784347 0.08743521 -0.078472316 0.046627834 -0.05774432 0.097282976
-0.05821302 -0.112207144 -0.01773631 0.05812566 0.091337204 -0.002408549 0.075730436 -0.007177894
-0.016122818 -0.077057414 0.102362946 0.002640467 -0.12008418 0.060915202 0.07144511 -0.08308635
0.0012105535 -0.08094589 -0.08677716 -0.105337635 -0.016599627 0.092658415 -0.108900934 -0.045672845
0.06387917 -0.004745084 0.040957462 -0.0028398372 -0.037148602 -0.036420453 -0.04343902 -0.11395701
-0.10719865 0.075294666 -0.06739142 -0.023086691 0.08138237 -0.055521365 0.021257943 -0.07768914
-0.042315386 -0.09179475 -0.08766052 0.0066438853 -0.09006865 0.09259238 -0.11655672 -0.106529444
-0.097509004 0.068018466 0.052083924 -0.0488019 0.0067354073 0.026445692 0.02517159 0.040654242
0.018311834 -0.085323736 -0.10544143 0.09349117 -0.10015417 -0.046667174 0.06701128 -0.019035673

weight f4 [8]
00000000: 8710 813f 377e 7e3f f301 7e3f 1351 803f
00000010: 89ac 7c3f 4e49 7e3f f4f1 813f 1ee3 803f
1.0083169 0.9941134 0.99221724 1.0024742 0.9870077 0.99330604 1.0151963 1.0069311

bias f4 [8]
00000000: 8f47 9f3b 96ca f0ba f672 65ba c8b3 773c
00000010: bafc 16bc ad72 f2ba 2c33 e73b b273 213c
0.0048608254 -0.0018370922 -0.0008752787 0.015118547 -0.009215528 -0.0018497311 0.0070556607 0.009854244

running_mean f4 [8]
00000000: 1c5c 183e 74b4 993e e1ff ddbe c5ab c6be
00000010: 77cb 5d3e b6ec 263e 0e75 e53e f189 893e
0.14878887 0.30020487 -0.43359283 -0.38802925 0.21659647 0.16301236 0.44815868 0.26863053

running_var f4 [8]
00000000: 38fe 543e 5305 193e dcec 1b3e 7f2a 1c3e
00000010: 0a7e b23d 281c 733e 1250 083e 3ab0 fd3d
0.20800102 0.14943437 0.15227073 0.15250586 0.08715446 0.2374121 0.13311794 0.12387128

weight f4 [16, 8, 3, 3]
00000000: 2602 03bc 7882 8ebd ba97 bd3d 7829 f8bc
00000010: a76f 55bc 3ada 503d 0724 cc3d 8eb3 b13d
00000020: 860e e6bd 74bd 00bc e8ad da3c d748 5a3d
00000030: d276 113c a357 4f3d 7c77 af3d 4a9b 70bd
00000040: 8665 0bbd 3c7f 153b 01a7 a13c 0857 a23c
00000050: bb69 ebbd 56d5 f1bd 0e7c 88bd 5d9b 8f3c
00000060: f2f8 493d 24be ad3d 5a28 8c38 5114 42bd
00000070: af61 a23c 3ece ba3d 731d 483d 1380 91bd
00000080: c98e e3bd 8ec6 db3d d75b b63d 4f81 c03d
00000090: 9c0f e8bd 4057 46bd a7b1 e1bd 26a5 9ebd
000000a0: 2e9c 8c3d b952 f0bc 6fa1 ab3b d43e 4bbd
000000b0: c3c9 92bd 280d b4bc 89a4 96bd 673c a23d
000000c0: 64bf 8a3c 8e41 bbbd aa28 303d 78ba f4bc
000000d0: 307c abbd 0cbd 843d 93b3 af3d 73f9 c1bd
000000e0: 6135 93bd 7ed6 9a3d f57b 213a fcfd 863d
000000f0: 02fc 913d 7750 8b3d 30a3 c13d ccd6 f63c
00000100: 8e4e 443d 737e f03d 9b6b 7bbd b1d0 c13d
00000110: 644a 1ebc 705d 1f3d 6bbc 8ebd a4fc 463d
00000120: 0031 813b 2425 b1bd 14f3 afbd d02b 9abd
00000130: 162c ca3a ee01 643d fa34 9d3d 713d 243d
00000140: 1d0b b5bd 2845 243c 9829 ec3c d1a0 ad3d
00000150: 809b cebd 5b9b e1bc 00f3 603d 364b 023d
00000160: 9945 81bd 31ff a33d 88e5 ffbc 8190 593d
00000170: 13d6 e1bd 82c0 973d e481 9e3d a3bb 4cbd
00000180: 62d1 cd3d fd76 8dbd 431c 8e3c 30f5 3e3d
00000190: 2bf0 6e3d 82b4 553d bd6b 9d3d 15f1 61bd
000001a0: 6d0c df3d a46b 623c 128e 8b3c 8ccf 2fbd
000001b0: f5ac 4abd 9700 303d 6e72 c73d d0d5 d5bd
000001c0: 40ad c8bc f949 a53c 75b4 30bd ceeb 8f3c
000001d0: 4c94 b53d 032a b73d d23f 31bd 8e5d 80bc
000001e0: d131 cbbc 0bed 203d 01d7 8b3d 4ad7 d8bd
000001f0: fdf1 bdbb 0cc0 9d3c 6e5c b2bd b819 85bd
00000200: a38f bb3c 3c78 83bd 4b7d 97bd de42 d3bd
00000210: e981 bdbd df89 8cbd ec47 83bd 9cb7 0c3a
00000220: 90a1 683d 52b8 a63b 411d 0bbb 7d09 bb3b
00000230: 0a00 ac3d e23d 5c3c 5f69 d7bd 01bd 3abd
00000240: 4986 bcbd 07fe cb3d 1ad5 913d 8c30 c53d
00000250: fe28 a33d 05e7 843d 060b 76bd cdf1 353d
00000260: a153 cdbd 3b88 8a3d 5a9e 8abd b66f a6ba
00000270: b849 56bd 57f6 51bd 2507 f1bd f2df e0bd
00000280: 4993 0bbd 6bef c13d 0240 d23d 4b77 0b3d
00000290: bbdd a23d 5f23 7cbd fff4 043d e782 d9bd
000002a0: 32ac d93d 30f4 f33b eb59 213c 64cb ba3d
000002b0: a85d c23d 5861 cb3c 9612 033c 1831 953c
000002c0: 5b42 ba3d bc79 a53d 29f7 f9bc e5a6 87bc
000002d0: ac5d bf3d 274c 00bd d182 ccbd 1070 6dbc
000002e0: 618a 9c3c 913a d9bd 3396 c83d 0118 babc
000002f0: 84e4 133d 66ed 913d ecf0 09bd 5d33 99bd
00000300: ecd1 fabd c918 b23d 9563 053d a70b 28bd
00000310: 6bcc 90bc f05a b03d f896 01be 9d27 89bd
00000320: 6c79 713d 6b52 2dbc 714d 893c d15a c4bc
00000330: fb21 6a3d 12ae c03c 2fea e1bd 1439 8b3c
00000340: ebbc c1bd 689e 803d 27d4 89bd 59ab b03d
00000350: 15f6 bbbd a3e2 fbbd d9c6 dbbd 579f f53c
00000360: 3ac3 323b 0f79 e23c 9f14 383d b371 03bd
00000370: 145a ae3d 6035 093c 5d88 c83d 3d0f 2d3d
00000380: ebd5 debc 4224 c93d 54c8 9c3d cabc 8cbd
00000390: 3d0b 9b3d d3f1 f83d 341b e1bc 60e7 413b
000003a0: c038 c53d f318 1dbc f854 a6bd fa4b 93ba
000003b0: ccce 333d c0bc 10bd ace9 433d c0af ce3c
000003c0: 0b98 74bc 695c 213d 24e1 b73d ba4b a23d
000003d0: 63f3 f9bc 7cba c2bd da74 ff3b f549 dc3d
000003e0: 656c 813d 5335 58bd e619 453d 9e32 1a3d
000003f0: d16d 9c3d 580e 653d 183a b3bc cb84 e93d
-0.007996118 -0.06958479 0.09257455 -0.030293211 -0.013027108 0.050989367 0.09967809 0.086768255
-0.11233239 -0.007857669 0.026694253 0.05329212 0.008878427 0.050620686 0.08567712 -0.058741845
-0.034032367 0.0022811433 0.019732954 0.01981689 -0.11494776 -0.11808269 -0.066642866 0.017530138
0.04930968 0.08483532 6.683236e-05 -0.047382656 0.01982197 0.09121369 0.04885621 -0.07104506
-0.111112185 0.10731231 0.08904236 0.09399664 -0.11331102 -0.04842305 -0.110202126 -0.07746343
0.068657264 -0.02933632 0.0052377502 -0.049620464 -0.07167389 -0.02197893 -0.07355601 0.07921677
0.016936965 -0.09143363 0.04300753 -0.029874071 -0.08373296 0.0648137 0.08579173 -0.09471407
-0.071879156 0.075604424 0.00061601336 0.065914124 0.07128145 0.06802457 0.09454954 0.03013172
0.047926478 0.11742868 -0.061381917 0.09463633 -0.009661291 0.03890747 -0.069695316 0.04858078
0.003942609 -0.08649662 -0.08591285 -0.07527888 0.0015424516 0.055665903 0.0767612 0.040097658
-0.0884001 0.010026254 0.028828427 0.08477939 -0.10088253 -0.0275399 0.054919243 0.031810008
-0.06312103 0.08007658 -0.031237379 0.053116325 -0.110271595 0.07409765 0.077396184 -0.04998363
0.10049702 -0.06907461 0.01734746 0.046620548 0.05833451 0.0521741 0.07686565 -0.055161554
0.10891042 0.013819609 0.017035518 -0.04292254 -0.04948135 0.042969313 0.097386226 -0.10441172
-0.024496675 0.020176874 -0.043140847 0.017568495 0.08866176 0.0894356 -0.043273754 -0.01566961
-0.024804028 0.03928856 0.06828118 -0.10587938 -0.0057966695 0.019256614 -0.08709036 -0.06499046
0.02289564 -0.06419417 -0.073969446 -0.10315488 -0.09253294 -0.06862234 -0.064102024 0.0005367936
0.056794703 0.0050878907 -0.0021227153 0.005707918 0.08398445 0.013442488 -0.10518145 -0.045590404
-0.092053 0.09960561 0.07120724 0.096284 0.07966803 0.06489376 -0.060069107 0.044420052
-0.100257166 0.06764265 -0.067684844 -0.0012698087 -0.052316397 -0.05126032 -0.11768941 -0.10980214
-0.03407601 0.094694935 0.10266115 0.034049314 0.07952448 -0.06155717 0.03246021 -0.10620671
0.10628547 0.007444881 0.009848098 0.09120825 0.0949052 0.02482669 0.008000037 0.018211886
0.090946876 0.080798596 -0.030513363 -0.016559074 0.09344038 -0.031322625 -0.09985889 -0.01449205
0.019108953 -0.10606874 0.09794273 -0.022716524 0.0361066 0.07125358 -0.033677027 -0.074805
-0.12247071 0.08696134 0.032565672 -0.041026738 -0.0176756 0.08611095 -0.12655246 -0.06697009
0.058953688 -0.010578732 0.01676056 -0.023969086 0.057161313 0.023520503 -0.11030995 0.01699499
-0.09459861 0.062802136 -0.06729918 0.08626432 -0.09177796 -0.12299087 -0.107312866 0.029983206
0.0027277009 0.027645616 0.04494154 -0.032090854 0.08513275 0.008374542 0.09791634 0.04225086
-0.027201613 0.09821369 0.07655397 -0.06871946 0.07570503 0.12155499 -0.027478792 0.0029587373
0.09629965 -0.009588468 -0.08121675 -0.0011237853 0.04389839 -0.035336256 0.04783027 0.025230289
-0.014928828 0.03939477 0.08978489 0.079246 -0.030511564 -0.09508225 0.007795912 0.10756294
0.06319503 -0.05278523 0.0481204 0.03764593 0.07638133 0.055921882 -0.021878287 0.114022814

weight f4 [16]
00000000: 328b 7d3f 9fd6 7e3f e577 7e3f 8f29 7f3f
00000010: e226 7e3f c3e0 7d3f cb02 7e3f d729 7e3f
00000020: 63bd 783f 98b9 7b3f 7e6c 7b3f 6b87 7c3f
00000030: fd09 7a3f febe 7a3f 1c9c 7c3f 5a28 783f
0.9904052 0.99546236 0.99401695 0.9967279 0.9927808 0.99171084 0.9922301 0.9928259
0.9716398 0.9833007 0.9821242 0.9864413 0.9767149 0.9794768 0.98675704 0.9693657

bias f4 [16]
00000000: 005f cfba 1ea5 aa3b 9741 0ebb b9a8 b23b
00000010: 8f77 9c3b 7b96 353a 1b18 f2ba 2f03 f43b
00000020: c5e3 91bb 3966 28bc e44d c0bc 8a20 a8bb
00000030: d21a cebc 05b5 f9bb 07c6 2ebc 7982 d6bc
-0.0015821159 0.005207672 -0.0021706575 0.005452242 0.0047749947 0.00069270254 -0.0018470319 0.0074466686
-0.004452201 -0.010278278 -0.023474641 -0.005130832 -0.025159273 -0.007620456 -0.010667331 -0.026185261

running_mean f4 [16]
00000000: 4b79 a03d f72d 1cbe 0c2f b9bc 4ec6 173f
00000010: 9250 383d 90e7 14be 7218 5cbe e2f7 643d
00000020: 2153 a23e c5c4 6dbe 668e 1bbf d045 07bf
00000030: cd53 f3be 35fb 1abe 7428 9fbe 9544 77be
0.07835635 -0.15251909 -0.022605442 0.59286964 0.044998713 -0.14541459 -0.214937 0.055900462
0.31704047 -0.23219593 -0.6076416 -0.528409 -0.47524872 -0.1513489 -0.3108555 -0.24147256

running_var f4 [16]
00000000: 6f34 173e c1ad 2d3e 1521 053e cd0b 283e
00000010: 4c90 a13d ca0c 0d3e 80ad b33d b3ff 2d3e
00000020: ab81 df3d 501d df3d 746d 4c3e b0c9 553e
00000030: 9a9e 323e f5fe 083e 739a 0d3e 74cc e73d
0.14766096 0.16960813 0.13000901 0.16410752 0.078888506 0.1377441 0.08773327 0.16992073
0.10913404 0.10894263 0.19963628 0.20877719 0.17443314 0.13378508 0.13828449 0.11318293

weight f4 [64, 96]
00000000: b2b1 35bd babd 4cbd 5549 be3d cc7c c83d
00000010: 47f7 32bd 4dc4 4abd 4f0a c0bc 27a9 3dbd
00000020: 10f5 8f3d c9c7 34bd 42e1 923d 6c1b 75bd
00000030: af32 ca3d 9ead c83d 4cd1 19bd 16e0 34bd
00000040: 25ea 0fbd 6b7a 6fbd 7060 6a3d 17bf 9ebd
00000050: 609b 88bc 52fd fa3c cd0e 20bd 152b 58bd
00000060: 05ad cdbd d9e6 be3d 04ad 67bd cd61 9bbd
00000070: 43ac ee3a 2d57 33bc 42c0 ad3d a4d0 4f3d
00000080: 90ac a93d 6d1b 1c3b c750 adbd c320 573d
00000090: e5a8 01bd 3160 aa3d 08d5 50bd 35eb 14bd
000000a0: a0d3 a73d b124 bebd e701 493d c1e4 b73d
000000b0: 1b2d c9bd ec7b 8bbd b17c 083d 9595 c3bc
000000c0: e0e6 edba 9b19 b3bd 12b8 93bd bc0e 95bd
000000d0: a137 3b3d 1973 ccbd 1867 1aba d882 a1bc
000000e0: 3aec 74bd 1e50 0bbd 82bc c13b a77f 0ebd
000000f0: edfa 8b3d a8bf 923d 3fdf 953d cfd9 663d
00000100: 1f6f 30bb d73d 663c 5b8e 3dbd 7fab 443c
00000110: bdc6 7dbc 77f7 033d 2327 9abd 4ca1 b8bc
00000120: 96d9 7abd 2275 b5bd 5272 68bc 9a57 793d
00000130: 7a05 8d3d 7237 263d 69e4 bdbc 6ef9 163d
00000140: a888 0e3d f961 ccbd de60 53bd 479c 82bd
00000150: e08a abbd 084d cb3d 5c12 293d 126a 9bbd
00000160: 3356 0cbd c99d 9a3d 7ba7 893d cf2e 813d
00000170: 5ec2 6a3d 9d48 663d 4500 ca3d 4915 343c
00000180: fe32 86bd 3060 15bd 5406 b93d 30fa dc3b
00000190: fc6d 463d 2a8b a7bd 55e3 b9bc b002 9abd
000001a0: fbf5 5b3d 7626 96bd 5aa1 95bd f170 bb3d
000001b0: 10a7 583d c8df a7bd f2fa 71bd 9461 b0bb
000001c0: 07ce bbbd b3b6 a83b aa8f c0bd e2ec cb3d
000001d0: 8df5 1dbc a773 883d 7564 8abd 0e8e 8dbd
000001e0: bfef 8ebd b574 c03d 8e18 40bd c82d 70bd
000001f0: d402 cb3d 37f1 81bd 0a2c ecbc dfcb a03d
00000200: e8ff abbc d621 8a3d b836 41bd 0c0f 57bd
00000210: 74a6 693d 1ed3 93bd 7817 163c 77d5 b43c
00000220: 8319 b2bd 10ce 03bd 72cc a23d 062f c83c
00000230: c3bb 683d 28a8 833d 5101 7bbc 5104 263d
00000240: 29be 36bd 908a b0bd 47f1 17b9 9c0e 38bd
00000250: 37a9 9d3d 5cd0 1b3d 3b0a 143d ed44 4e3d
00000260: a00f 633d 315b 91bd 430c a93b 72b3 67bd
00000270: 788b c73d b4a4 6c3c d7be a8bd af63 cf3b
00000280: ee3c ad3d a980 293c 1140 4c3d e259 60bd
00000290: cf16 913d 832a c2bd 0cb9 453d 54d1 b33d
000002a0: fa36 4cbd ebb1 e839 3ab0 423b 295c 77bd
000002b0: 00e6 903d 7526 41bd c46b ae3d e1b8 533d
000002c0: f2f4 303d 6a9c 0b3c eb79 6fbd 3d6d bcbd
000002d0: 0f10 913d f0ca 41bc 7d9b 523c 9d10 793d
000002e0: f76f 84bd c456 b13a 1dc1 b53d 1484 4dbd
000002f0: 3a2b 67bc be69 d0bd 9dfa 46bd e525 b3bd
00000300: 9207 02bd 41b1 f7bc 3996 b3bc ad7a cbbd
00000310: dfe4 68bd 3fd7 a9bd 1607 903d 7293 abbc
00000320: 96f6 7fbd 12ca 913d bba9 3abd fb4d 533d
00000330: bda9 cd3d a43f 203d 83dc 8ebd 9cca a73d
00000340: 144e eebc 4532 8f3d 1db3 9abc 0090 eabc
00000350: 474a 8e3d 8c2c f9bb 48f6 b5bd c464 aabd
00000360: 7cc7 be3b 0a91 83bd 8cdf fc3c 6031 30bc
00000370: afb6 623d cc89 45bb 2bb7 c53d 3509 9ebd
00000380: 2422 d7bc c554 a2bc c0ef 81bb 37f2 24bc
00000390: f9a7 2fbd bc4c f3bb 19d4 8e3c 3792 bdbd
000003a0: 204c 8e3d fcb9 9d3d 6154 febc 579c 9d3d
000003b0: a0bb 08bc d964 aebd cec5 a6bd f3a0 85bd
000003c0: 7181 e93b 1432 d03d 9431 793d 88a5 3b3d
000003d0: aeb0 3bbd 9afe c9bc 64bd 883b d96e 9f3d
000003e0: 6cc4 b03d d1e3 b13d 3240 c33d 196f 96bd
000003f0: 7553 a23d f77e b03d 98be 243d e57f a63c
-0.044358917 -0.049985625 0.09291331 0.09789428 -0.043692853 -0.049503613 -0.023442416 -0.046303894
0.07029164 -0.044135842 0.07171871 -0.059840605 0.098729484 0.0979874 -0.037553117 -0.044159018
-0.035135407 -0.058466356 0.057220876 -0.07751291 -0.016675651 0.03063837 -0.039076615 -0.05277546
-0.100427665 0.093213744 -0.056561485 -0.075870134 0.0018209297 -0.010946077 0.08483936 0.050736085
0.08284867 0.0023820058 -0.08462673 0.05252148 -0.03165521 0.08319128 -0.050984412 -0.036357123
0.08194661 -0.09284342 0.04907408 0.08979178 -0.09823056 -0.068107456 0.03332204 -0.023875037
-0.0018150471 -0.08745118 -0.07212843 -0.07278201 0.04570735 -0.09982891 -0.0005889996 -0.019715711
-0.059795596 -0.034011953 0.0059123645 -0.034789708 0.0683497 0.07165462 0.073179714 0.056360062
-0.0026921702 0.01405283 -0.04627834 0.0120037785 -0.015489277 0.032218423 -0.07526996 -0.02253785
-0.061242662 -0.08860232 -0.014187412 0.06087456 0.0688581 0.04058022 -0.023180204 0.03685897
0.034798294 -0.09979624 -0.05160605 -0.06377464 -0.08376098 0.09926802 0.041277274 -0.07588591
-0.034261893 0.075496264 0.067213975 0.06307756 0.05731427 0.056221593 0.09863333 0.010991403
-0.06552695 -0.036468685 0.0903441 0.006743692 0.048444733 -0.0818084 -0.022691408 -0.07520044
0.053701382 -0.073315546 -0.07306166 0.09152401 0.0528937 -0.0819698 -0.05907721 -0.005382726
-0.09170156 0.0051487326 -0.09402402 0.09957291 -0.009641063 0.06662684 -0.06757442 -0.069118604
-0.06979322 0.0939726 -0.046898417 -0.05863741 0.09912649 -0.06344836 -0.028829593 0.07851385
-0.020996049 0.06744735 -0.047171324 -0.052504584 0.057043508 -0.07218002 0.009160869 0.022074444
-0.08696272 -0.03217894 0.07949151 0.024436485 0.05681969 0.06428558 -0.015320138 0.04053146
-0.044614945 -0.08620179 -0.00014490365 -0.044935808 0.07698291 0.038040504 0.03614257 0.0503587
0.055434823 -0.070974715 0.0051589324 -0.056567617 0.097433984 0.014443565 -0.08239525 0.006329022
0.08458887 0.010345616 0.049865786 -0.05477322 0.070844285 -0.09480765 0.048272178 0.087801605
-0.049857117 0.00044383047 0.002970709 -0.060390625 0.07075119 -0.047155816 0.085166484 0.051689986
0.043202348 0.008521179 -0.05846588 -0.09200523 0.07083141 -0.011828169 0.012854454 0.06080686
-0.06466668 0.0013529886 0.08874724 -0.050174788 -0.014109427 -0.10176419 -0.048578847 -0.08747462
-0.0317455 -0.030235888 -0.021922218 -0.09935508 -0.056858893 -0.08293008 0.070326015 -0.02094433
-0.062491022 0.0711862 -0.045572024 0.05158804 0.10042141 0.039123192 -0.06975653 0.081929415
-0.029089965 0.0699201 -0.018884236 -0.028633118 0.06947761 -0.0076041874 -0.08884865 -0.08320001
0.0058221202 -0.064241484 0.030868314 -0.010753959 0.055350002 -0.0030141948 0.09654077 -0.077166
-0.026261397 -0.019815812 -0.003965348 -0.010067514 -0.0428848 -0.007424919 0.01743512 -0.09256404
0.069481134 0.07701489 -0.031046094 0.07695835 -0.008345515 -0.08515329 -0.08143197 -0.06524839
0.0071260263 0.10165802 0.060838297 0.04581216 -0.04582279 -0.024657536 0.0041729677 0.077848144
0.086312145 0.08686031 0.09533729 -0.07345409 0.079260744 0.086179666 0.040220827 0.020324657

bias f4 [64]
00000000: e5c0 e3bc 3bfd 463c e6b1 db3d 5c9e 44bc
00000010: 7b68 b2bc d478 883d 4591 5f3d 17c2 873d
00000020: 1b3b afbd e7bc eb3c 7791 f53c caf2 40bd
00000030: 9f23 a4bd 871f 3c3d c653 72bd 184d c83c
00000040: 5700 cabc dde5 a23c f8c2 8c3c 7b40 083d
00000050: 0895 d03d 5234 70bd 38e4 8e3d d5af 5a3d
00000060: e4e7 d9bc 0e18 1a3d e39e 8c3d 9ecc a1bd
00000070: b2da c9bd 4942 733c 02ec b93c b914 383d
00000080: 4414 6f3d 4cdf a2bc 6606 183d cfa7 443d
00000090: 1ceb a9bd 20bd f63c cf2e 853d 257f 4a3d
000000a0: 5318 c13d a0cb fb3c 482d 6b3c b61e e5bc
000000b0: a54f 86bb 48cd f53c 22b4 983d 4e7a c9bc
000000c0: 5e69 7b3d 5f38 bdbd 4a85 d4bc 9c7e b3bd
000000d0: 6ad5 46bd 6358 b43a a7c8 05bd 1331 c0bd
000000e0: 34d0 533d 452f c3bd 0346 cd3d e6d5 8c3d
000000f0: 3d4b 47bd adfc 72bd 56cd 4fbd ab7f 65bd
-0.02780194 0.012145336 0.10727291 -0.012000646 -0.021778336 0.06663671 0.0545819 0.066288166
-0.08556195 0.0287766 0.02997659 -0.04710654 -0.08014607 0.045928504 -0.059161924 0.024450824
-0.024658365 0.019884998 0.017182812 0.03326462 0.101846755 -0.058643647 0.06977123 0.053390343
-0.026599832 0.037620597 0.06866243 -0.07900356 -0.09856166 0.014847347 0.022695545 0.044941638
0.058368936 -0.019881867 0.037115477 0.048011597 -0.08296797 0.030119479 0.06503069 0.04943766
0.094284676 0.030736744 0.014354058 -0.027968746 -0.00409885 0.030005112 0.074562326 -0.024594452
0.061379783 -0.092392676 -0.025942463 -0.08764383 -0.04854337 0.0013759251 -0.03266206 -0.0938436
0.05171223 -0.095305 0.10023119 0.068767354 -0.048655737 -0.059323 -0.050732933 -0.056029957

weight f4 [1, 64]
00000000: 7867 7d3d 8c01 9bbd 2a48 b23d 44f1 f93d
00000010: 2766 b33c 8e30 bb3d 1044 b9bd ba66 88bc
00000020: 7993 7ebc 2f34 b1bd 6840 9c3c d2b0 863c
00000030: 2ff4 0fbd 493b afbd c295 04bd ae47 c33d
00000040: d7ae 2a3d 748c 84bd b5c6 003d 7845 0dba
00000050: 4579 e63d b462 28bd b7fa a33d 1a2d 67bd
00000060: 93bc 8bbd 78e4 14bd e6e6 9a3d 4865 b93c
00000070: b0a2 43bd 3e58 423d 8712 e73c 2b07 983d
00000080: 126e c63d 5cdf 613d a253 a8bd cce2 d93d
00000090: 60f2 853c d2f4 9abd 3e27 8bbd b006 a1bc
000000a0: a310 8abd f97b 803d 4641 7fbd 2b01 773b
000000b0: c284 d3bd a428 abbd 257a 973d bb4c 06bd
000000c0: 2a47 83bd 0e05 24bd 696e 7dba 485e a3bc
000000d0: 0e3d 0a3c 67e2 33bd d02f 833d 0733 c0bd
000000e0: e3d9 a63d b1fc 80bd 400a b13d a439 8d3b
000000f0: 400d 8b3d ef73 403d da11 80bd b763 a73d
0.061866254 -0.075686544 0.087051705 0.12204221 0.021899296 0.091401204 -0.09046185 -0.016650546
-0.01553809 -0.08652531 0.01907368 0.016441736 -0.03514498 -0.085562296 -0.032369383 0.09535156
0.041670647 -0.06472102 0.0314395 -0.0005389075 0.11253599 -0.041109756 0.080068044 -0.056439497
-0.06823077 -0.036350697 0.07563572 0.022631302 -0.047762573 0.047447436 0.028207077 0.07423242
0.09688963 0.055144653 -0.08219077 0.10638961 0.016350925 -0.07566227 -0.06794594 -0.01965651
-0.067414545 0.06273646 -0.06231811 0.0037689905 -0.10328056 -0.08357361 0.07396344 -0.03278802
-0.06410058 -0.040043883 -0.00096676365 -0.019942418 0.008437408 -0.043917086 0.06405604 -0.09384733
0.08147027 -0.06298197 0.08644533 0.00430985 0.067896366 0.046985563 -0.06253405 0.08173316

weight f4 [64, 96]
00000000: e23e b6bd eeed adbd 1b0d 513d f673 473d
00000010: 5014 94bd c4b3 19bd 8bba 92bd cdf4 bd3c
00000020: 34de 1dbd 9772 453d c54b 1bbd 72b2 0f3d
00000030: 9ad3 003d 8f87 a43d a5a4 b23d f7f8 e1ba
00000040: 40dd 793d af3d cfbd 11b2 a43d 0d29 3abc
00000050: 9782 8ebc 8327 983d 0aa0 c3bc 0e3d abbd
00000060: 7532 41bd 9bc7 62bd 12c0 7abd 02d0 5b3d
00000070: e9e8 51bd 397b 8f3c 9bc8 2a3d 639f 4d3c
00000080: 24fb 32bd b66d 923c ad83 9e3d 4f78 97bc
00000090: 61b2 b13d 5299 6f3d f91a 673c 8a2b a7bd
000000a0: fb43 01bd 7662 c13d 80cd ec3b be49 9abd
000000b0: cd25 c6bd 6ae7 aa3d d6e0 9d3d 107b 643d
000000c0: d871 3ebd 06ab b6bd a208 5e3d 8996 08bd
000000d0: 796e c9bd e4ff 253d 594b be3d 36ba a0bd
000000e0: 5a02 6f3d a42d bb3c 2e10 d8bd fd52 4d3d
000000f0: 8f3d 913d 97b4 bc3d 4cde ab3d 6e09 c6bd
00000100: 1da1 3dbd 3108 483d ab03 8d3d 8d93 c4bd
00000110: aceb d93c bb00 71bd c0fe 7dbd ac5b 203c
00000120: c793 77bd 6357 833d 42eb 71bd 56bd 063d
00000130: 3496 973d 43b8 20bd e65a e8bc bbf8 10bd
00000140: b21a f33c a445 a7bd 1b6e ac3a 0afd a1bd
00000150: 94e1 463d f146 82bc 1faf 433d 17db 353b
00000160: 19e4 b3bd 616f bd3c ffea 4ebd 7984 ff3c
00000170: 8b10 a0bd a2f1 563d 0522 ae3d 2be4 7a3d
00000180: c466 adbd 7480 51bd 0c4e 7dbc 93bd cdbc
00000190: 5635 f13c 5f20 dabc c331 1e3d 172e 67bd
000001a0: a9f9 7b3d fcf5 bf3d f6de c23c 7a9a 97bd
000001b0: 7fa8 a0bc e851 97bd 8b35 5fbd 798b 8b3c
000001c0: 623a a7bc ff96 3a3d 46b5 c13d 1d57 683d
000001d0: 53d5 863a e161 3f3d 9849 27bc bb59 6dbd
000001e0: bdce f9bc 6daa 06bd 248c 83bd f7d4 84bd
000001f0: 2159 b03d 1cdd a83d 8aae 00bd f331 1c3d
00000200: efad 77bd b303 133c 6f29 8a3d 2b8f cebc
00000210: 3cc8 133d 5651 a9bd f472 09bd ebe3 8b3d
00000220: 2ab3 7c3d 324b 9f3c a313 85bd 033e e5bc
00000230: c62c c9bd a93f 033d cbc5 4a3d dd53 b33d
00000240: 6cf8 053d 18e1 a9bd 6410 463d 9f44 af3d
00000250: 12b8 a23d 8bd2 d9bd 44e2 1abd 14e2 6f3d
00000260: 8f8a 51bd afc3 6ebd a6ba 0fbd 4a29 0ebd
00000270: 15b4 04bd 4c55 8dbd be54 1bbc a76b a5bd
00000280: 224e b23d 2254 21bd f637 293d bab0 b93c
00000290: 07c2 563d 37fc 8fbc 66d4 6a3d 5fe7 3abd
000002a0: a4c3 adbd f2dc a43d feab bdbd ea3f 113d
000002b0: b387 bcbd 4d0e 9c3d 1ecf b93c 65e0 c23c
000002c0: f0e5 50bd 1a4d b7bd 542e b7bd 6afe 59bd
000002d0: 823e b03d db2a 5d3d 290c 883d e96b 943c
000002e0: d99f b43d 2124 f3bc 7551 9d3d 4b91 8b3d
000002f0: ea89 fabc 78df 873d 6c61 3c3d dad3 c7bd
00000300: 42e0 67bc b56a 2cbd ca7e af3d 3e3e 52bd
00000310: 97be 58bd 615c 95bd 9366 4b3d ff1e 5a3b
00000320: 6b1f 9dba 715e 9b3d d561 bcbd ea52 ddbc
00000330: 9b94 c03d f3be 293d e408 94bd ffba b4bd
00000340: f5a5 bebd d480 8a3c 6ccf b5bc 892e 45bd
00000350: be76 47bd 1c35 3c3d 8cb4 4f3d 91d5 4dbd
00000360: a04d 94bd 6636 3e3d 7895 853d e5df 9b3a
00000370: e41d 2e3d 9709 51bd bc67 903d 2b9c 7dbd
00000380: a929 6f3d 3f0f 7cbd 938e 843d 0d59 cebd
00000390: 97c9 b43b 1299 223b 70c7 803d ce12 9d3c
000003a0: aabe c73c 4cd9 20bd 6f95 91bd 0ad8 c8bd
000003b0: 4294 48bd 2ce2 c2bd e592 503c c200 c43d
000003c0: f9c3 323d c0d7 b0bc 7936 8b3d e123 863c
000003d0: d74f 653d 3b0e b8bd 3855 133d aa64 cc3c
000003e0: 225b 023d 042f b2bd 752d 873c 19ff c5bc
000003f0: 1175 793d ec75 ba3d fe33 b3bc d0bf bbbd
-0.08898713 -0.08492647 0.05103789 0.048694573 -0.07230437 -0.037524953 -0.071644865 0.02318802
-0.038541988 0.048204985 -0.037914056 0.035082288 0.0314518 0.08033668 0.0872281 -0.0017240335
0.061002016 -0.10119187 0.08041776 -0.011362326 -0.017396254 0.07429411 -0.023880024 -0.08361255
-0.04716726 -0.05536614 -0.06121833 0.05366517 -0.05124751 0.017514812 0.04169522 0.012550208
-0.043696538 0.01787458 0.07739959 -0.018489985 0.08676601 0.058495827 0.014105552 -0.08162601
-0.03155897 0.09442608 0.007226646 -0.075335965 -0.09675179 0.0834492 0.077089 0.055781424
-0.04649529 -0.08919339 0.05420745 -0.033346687 -0.09835524 0.04052724 0.09291715 -0.07848017
0.058351852 0.022848912 -0.10549961 0.050127972 0.070918195 0.09214132 0.08392009 -0.09669767
-0.046296228 0.048835937 0.06885465 -0.095984556 0.026601635 -0.058838587 -0.062010527 0.009787481
-0.060443666 0.06413152 -0.05906225 0.03289541 0.07401696 -0.039238226 -0.028363656 -0.035393458
0.029675815 -0.0816758 0.0013155373 -0.079095915 0.04855497 -0.015902968 0.04777443 0.0027748996
-0.087837406 0.023124399 -0.05051708 0.031191098 -0.07815655 0.052476533 0.085025825 0.061252754
-0.084668666 -0.051147893 -0.015460502 -0.02511481 0.029444378 -0.026626764 0.038621675 -0.05644044
0.06151739 0.0937309 0.023787957 -0.07402511 -0.019611595 -0.07388669 -0.054494422 0.01703428
-0.020413581 0.045554157 0.09458403 0.056723703 0.0010286964 0.046724204 -0.010210417 -0.0579469
-0.030494088 -0.032877374 -0.06423214 -0.06485932 0.0861075 0.08245298 -0.031416453 0.038133573
-0.06046861 0.00897305 0.06746184 -0.025214752 0.03607963 -0.08267467 -0.033556893 0.06830581
0.0616943 0.019445036 -0.06497886 -0.027983671 -0.09822993 0.032043133 0.049505036 0.0875623
0.032707617 -0.08294886 0.048355475 0.0855801 0.07945265 -0.10635861 -0.03781344 0.058565214
-0.05115753 -0.058292087 -0.03509011 -0.034707345 -0.032398302 -0.06901035 -0.009480653 -0.08077174
0.08706309 -0.039386876 0.041313134 0.022667278 0.052431133 -0.01757632 0.057331465 -0.04563081
-0.08484581 0.080499545 -0.092613205 0.035461344 -0.0920557 0.07619915 0.022681769 0.02378864
-0.051000535 -0.08950253 -0.08944383 -0.053221144 0.086056724 0.05399595 0.06642944 0.018117862
0.08819551 -0.029680314 0.07681552 0.06814822 -0.03058334 0.0663442 0.045991346 -0.09757204
-0.014152588 -0.04209395 0.08569105 -0.05132889 -0.052916136 -0.072930105 0.04965837 0.0033282635
-0.0011987513 0.07586373 -0.091983475 -0.027017076 0.09403344 0.04144187 -0.07228258 -0.08824729
-0.093089975 0.016907133 -0.022193633 -0.048140083 -0.048697226 0.045949087 0.050709292 -0.0502525
-0.07241368 0.046438597 0.065226495 0.0011892287 0.042508975 -0.051034536 0.07051036 -0.06191651
0.05838934 -0.061537977 0.064725064 -0.10075579 0.0055171954 0.0024810475 0.0628804 0.019174006
0.024382908 -0.03926973 -0.0710858 -0.09806831 -0.048969515 -0.09515795 0.012730335 0.09570457
0.043643925 -0.021587253 0.06797499 0.01637453 0.055984344 -0.08987089 0.035969943 0.024950344
0.031825192 -0.08700374 0.016501168 -0.024169492 0.06090266 0.09104523 -0.021875378 -0.09167445

bias f4 [64]
00000000: 1068 2cbd f865 953c b54a feba f154 25bd
00000010: 4a28 c73c 02b3 35bd 6c31 df3b 027b 67bd
00000020: a40a ab3d 542b dfbd ce54 a0bd 14ed 29bc
00000030: 518c e53c 5e16 aebd a873 2cbb 04bd bbbd
00000040: bf1a 09bd 7780 94bd 5674 dabd 2524 bc3c
00000050: cd69 56bd b864 63bd 228a 5fbd 101f b73d
00000060: d483 a43d 57ef 243d 4859 bb3d d9d4 813d
00000070: 8d1a c1bd 952f 893d d7e0 ad3c 0d5a 7b3c
00000080: 3000 b03c 6025 debd e058 713d 7275 56bd
00000090: 4f02 9d3d 68c7 273d ee29 b0bd 6ce5 c7bd
000000a0: 82fe 583c d170 bc3c 63fd b1bd 7d10 c5bd
000000b0: cad4 a9bd 122c 673d 0c6a 22bd aa8d 3a3d
000000c0: 2c6c 88bd 9433 503d ddee 38bd ce9b 1d3d
000000d0: 996b aa3c 8f3c 6d3d 4449 7ebd 7c98 833d
000000e0: 32e5 533d 8193 6f3c 1bd1 4d3d cde5 ab3d
000000f0: d568 4cbd d0b9 6d3d e640 7e3d 5427 66bd
-0.04209143 0.018237099 -0.0019400927 -0.04036421 0.024311204 -0.04436017 0.0068113115 -0.056513794
0.08351639 -0.10896936 -0.07828675 -0.010371465 0.02802101 -0.0850036 -0.0026314054 -0.09166911
-0.033472773 -0.07251065 -0.106667206 0.022966454 -0.052346993 -0.055515975 -0.054575093 0.089414716
0.08032957 0.040267315 0.091478884 0.063394256 -0.09428892 0.06698529 0.021225376 0.015341294
0.021484464 -0.108469725 0.05892265 -0.0523581 0.07666456 0.040961653 -0.086017475 -0.097605556
0.013244273 0.023003014 -0.08690908 -0.096222855 -0.082925394 0.056438513 -0.039651915 0.045545258
-0.06661257 0.05083044 -0.045149673 0.038478665 0.02080326 0.05791908 -0.06208159 0.064255685
0.05173225 0.01462257 0.050248247 0.083934404 -0.049904663 0.058038533 0.06207361 -0.05618985

weight f4 [64, 64]
00000000: 27bf b23d d603 2ebd 9f54 81bd 873b dd3d
00000010: 940d 69bd 282c dfbd 1677 dd3d 872c 273d
00000020: 2a77 fabd e778 1fbd 079d 2fbd 4538 c1bc
00000030: 6a70 703d 4eed 853d bbd4 f0bd 30ea 99bd
00000040: 5da0 8a3d 28d8 e23d 734e ed3d da53 50bd
00000050: b80e 2fbd 2a24 2f3d c282 a73d 9977 dbbc
00000060: 1067 f03d fa08 193d a87f a23d 71e6 e43d
00000070: 7e43 c23b db23 c33b 6140 6abd ca70 503c
00000080: 0ecc 8a3d fa88 0abd 2542 acba cdd4 00bd
00000090: c740 f6bd 65ea a73d 1075 ca3d f909 753d
000000a0: f80a d3bd afc8 e0bc 51da 12bc 6b0d 84bd
000000b0: b957 f83d 2286 2bbd 62c2 683c 9617 67bd
000000c0: 476c d23d e875 60bd 4369 d3bd ddd2 2fbd
000000d0: 6521 b63d 52c1 003c 3f27 99bd a4e0 203c
000000e0: e270 ec3d e0b7 e2bd 7171 833d 7061 593d
000000f0: 779d 24bd 372b e9bd 322e ebba 5287 533d
00000100: d7be 413d 789d 85bd 9235 8bbd ecc1 6fbd
00000110: 797e a33d e8ac eebd 543e 9dbd 82fc 8a3d
00000120: 061b babd 8946 89bd 5c46 e9bd 6feb 20bc
00000130: 3e45 843d 493c cebd 6826 593d 2517 20ba
00000140: 884d a8bc a1ab 68bd 806c 8e3c ce92 7abd
00000150: 4013 ce3d 6d14 693d 64a0 193c 3a14 68bd
00000160: e9d4 bfbd 3d97 95bd 83f1 6b3d 2c8a 21bd
00000170: 0e22 b23d b852 ea3d 9d83 b8bd 2312 90bc
00000180: f73e f7bd 5e5d a3bb 2f38 aebd 0cc7 c3bc
00000190: e367 bcbd 8d14 ab3d 6df0 39bd 9da7 453b
000001a0: e081 50bd 4de7 00bd de3e f1bc 9965 c6bd
000001b0: bb29 143d e6b1 8f3d d644 63bc 30c4 f1bd
000001c0: 41e4 1fbd b757 313d 1fd6 84bc f3e2 c13d
000001d0: 689c 42bd 8cd5 b3bd f0b5 b53d cdbb 9a3d
000001e0: 8a38 923d 84ac c53d c2cc fc3d 9bd6 a63d
000001f0: 02db 22bd 464f 38ba d1d6 933d 4c7b ecbc
00000200: 3786 a33b dbbc 763d f859 63bd d198 c53d
00000210: 4199 afbd 22c1 483d 5564 81bd ad2a 6bbc
00000220: f802 32bc a3c0 fa3d 89df ccbb 74ee 583b
00000230: 1d3c 27bd fdf7 c43c 17c2 febd 050a fb3d
00000240: 3381 bbbc a4d9 cc3d ce26 8e3b 98e2 aabc
00000250: d54b 5a3d 302c b1bd 1101 3fbd cd34 a53d
00000260: de49 70bd f160 d3bd b1ec f73d 6b09 9ebd
00000270: a162 6ebd 8dff 7d3d 6b7c cfbd 0fa6 c0bd
00000280: 2cac 8fbd 56e7 ce3d c293 32bd 48cf 8fbd
00000290: 0eb0 973d e56a d9bd 4a15 83bd 9990 573d
000002a0: 6f60 c43d 0a58 ba3b a07f ef3b 4bdc eb3d
000002b0: cde6 9ebd f51c 3b3d 0d8f fe3d f181 eb3d
000002c0: 7b91 61bd aad1 c7bd 4d47 51bd 4115 7cbd
000002d0: f87f 523c 7a66 c7bd 827f 913b abe8 85bd
000002e0: 3d01 e13d b1fb 033b 5c82 ab3d a99e 1dbd
000002f0: 9188 013c 2692 cabc c424 e5bd 1afa f93c
00000300: 39a8 243d 75f5 bbbd 5ee4 b1bd f51e 363d
00000310: 8e08 333c f907 f8bd 3225 9d3c 0722 fb3d
00000320: 4a98 6c3d df33 a8bd 9064 83bd 61a2 8b3d
00000330: 0aa5 5ebc 1eb9 9fbd 3ed1 dcbd 751d 063d
00000340: d9de 5b3d 9684 6e3d 5d1c f6bd 9bdc cfbd
00000350: f336 02bd f026 ae3d 624d ca3c 77e6 9ebd
00000360: f85b 763d 0394 bd3d b529 8f3c 5a46 083d
00000370: 9399 f9bc 705c 9ebc 85d0 543d 37e4 ba3c
00000380: f647 ab3d 6608 903d e2d0 aabc 7211 21bc
00000390: eda2 92bd e397 cc3d 6fe9 e5bc 4831 6dbd
000003a0: 1371 f83d f995 9f3c d563 2f3d 7920 b53d
000003b0: 0369 8fbb 8797 6cbd 79ca a1bd 1ce3 ed3d
000003c0: 9e8f 41bd c45e 923d fee0 bb3d e3a6 dbbd
000003d0: 3815 92bc 87a1 3fbc 60b2 6f3d 5a07 f6bc
000003e0: 10c8 88bc 9997 f33d 5e37 babd 5a70 d63d
000003f0: 81b0 033c d128 1fbd dc7a a13d fd80 b2bc
0.08727866 -0.042484127 -0.06314968 0.108023696 -0.056897715 -0.10897094 0.108137295 0.04081395
-0.1222976 -0.03893366 -0.042874362 -0.023586402 0.058700956 0.06539403 -0.11759325 -0.07515371
0.06768868 0.11076385 0.115872286 -0.050861217 -0.042738646 0.042759098 0.08179237 -0.026790427
0.117384076 0.037362076 0.07934505 0.11176766 0.005928456 0.005955202 -0.057190303 0.0127222035
0.067772016 -0.033822037 -0.0013142271 -0.031452943 -0.12024074 0.08199004 0.09885609 0.059823964
-0.103048265 -0.027439443 -0.0089631835 -0.06447872 0.12126107 -0.041875966 0.014206501 -0.056418978
0.102745585 -0.054799944 -0.103228115 -0.042925704 0.08893088 0.007858591 -0.07478189 0.0098191835
0.11544968 -0.110702276 0.064181216 0.05307144 -0.040189233 -0.11385196 -0.0017942844 0.051642723
0.04730114 -0.065241754 -0.06797327 -0.058534548 0.07983107 -0.11654073 -0.07677904 0.06786443
-0.090871856 -0.06702907 -0.11390373 -0.009821757 0.064585194 -0.10070092 0.053015143 -0.00061069644
-0.020544782 -0.056804303 0.017385721 -0.06117516 0.100622654 0.056904245 0.009376619 -0.056659915
-0.09366781 -0.07304237 0.05760337 -0.03943841 0.08697902 0.114415586 -0.09009478 -0.017586773
-0.120725565 -0.0049854955 -0.0850681 -0.023898624 -0.09199502 0.08353529 -0.045395304 0.003015972
-0.05090511 -0.031470586 -0.029448923 -0.09687347 0.03617261 0.07016353 -0.013871392 -0.11804998
-0.03903604 0.043296542 -0.016215382 0.09467115 -0.047512442 -0.08780965 0.088725924 0.075553514
0.0713969 0.09652045 0.12343742 0.081464015 -0.039759643 -0.00070308556 0.07218707 -0.028867386
0.004990365 0.0602387 -0.055505723 0.09648288 -0.08574153 0.04901231 -0.06317965 -0.014353436
-0.010864966 0.12243774 -0.0062522334 0.0033101114 -0.040828813 0.024044031 -0.124393634 0.122577704
-0.022888755 0.10002449 0.004338122 -0.020860001 0.053294975 -0.08651006 -0.046631876 0.080667116
-0.058664195 -0.103212245 0.12105692 -0.0771664 -0.05819953 0.06201129 -0.10131153 -0.09406673
-0.07015261 0.101027176 -0.043597944 -0.07021958 0.07406627 -0.10616092 -0.06400545 0.052628133
0.09588706 0.0056867646 0.0073089153 0.11516627 -0.077588655 0.045681912 0.124296285 0.11499394
-0.05507038 -0.09756787 -0.05109339 -0.061543707 0.012847893 -0.09736343 0.004440249 -0.065385185
0.10986564 0.0020139033 0.083744735 -0.03848139 0.007906095 -0.024727892 -0.11188653 0.030514766
0.040199492 -0.091776766 -0.08686136 0.044463117 0.010927333 -0.12110896 0.019182775 0.122623496
0.05776242 -0.082130186 -0.06415665 0.06818081 -0.013589153 -0.0779898 -0.10782097 0.032742936
0.05367932 0.058231913 -0.120171286 -0.10149499 -0.031790685 0.085035205 0.024695102 -0.077588014
0.060146302 0.092567466 0.017475942 0.033270217 -0.030468738 -0.019331187 0.051956672 0.0228139
0.08363335 0.07032852 -0.020851556 -0.009830819 -0.07159982 0.099899076 -0.028065411 -0.057908326
0.12130942 0.019480692 0.042819817 0.08844084 -0.004376532 -0.057761695 -0.07899947 0.11615583
-0.047256105 0.07146981 0.09173773 -0.107251905 -0.017832384 -0.011696226 0.05851972 -0.030032802
-0.01669696 0.11894149 -0.09092592 0.10470648 0.008037687 -0.038857285 0.07884762 -0.021790022

bias f4 [64]
00000000: 941d 6cbd 5436 3c3c 76e6 ebba 59a3 dbbd
00000010: f72e 1c3d 89d3 3c3d b8aa 473c 210d fe3c
00000020: 610e e33c 2239 393c 5dbc 4f3d 213d 363d
00000030: d684 2abd 191f 913c 9e60 3fbd 1d1b d83c
00000040: 441f 9d3d 5f9b 373d c88b 583d cfff f63c
00000050: aca8 69bd 1b63 eabc 6ee5 a9bc 83b3 c13d
00000060: a278 2d3b a57c b6bd f424 343d dc81 973d
00000070: bb53 3c3c 3d2e 73bd ef94 5f3b f35d eb3c
00000080: 7454 74bd f778 e63c 7306 ae3d a85c 0fbc
00000090: 328d 83bd 3a10 713d 8d69 15bc 10bf baba
000000a0: 42c9 6e3d 61f6 4b3d 27c2 063d 7445 0c3d
000000b0: feb5 ae3d 4622 893d 6f38 bf3c 3777 6e3d
000000c0: 504f 7cbd 00e4 0e3d 40ce d0bc 4593 c0bd
000000d0: f94d 963d 5285 a5bd 95d9 033d 55db b2bd
000000e0: 992d 823c 4db3 a23d a9ad 9bbd 57e9 1d3d
000000f0: 8d89 df3c 19c9 c83d 12f1 c4bd 19b4 b13d
-0.057645395 0.011487562 -0.001799776 -0.107245155 0.038130727 0.046100173 0.012186699 0.03101212
0.027716817 0.011305125 0.050716747 0.04449189 -0.04163059 0.017715024 -0.046723 0.026380116
0.07671979 0.044825908 0.05286768 0.030151276 -0.057045624 -0.02861171 -0.020739283 0.09458067
0.0026469608 -0.08910493 0.043980554 0.073978156 0.011494572 -0.059370268 0.003411587 0.028731322
-0.059650853 0.028133852 0.08497324 -0.008750118 -0.06423415 0.058853365 -0.009119404 -0.0014247615
0.058297403 0.049795512 0.0329 0.034245923 0.08530806 0.0669599 0.02334234 0.05821916
-0.061599076 0.034885406 -0.025488973 -0.094030894 0.07339091 -0.080820695 0.032189924 -0.087332405
0.015890883 0.07944355 -0.076014824 0.03855261 0.027287269 0.09803981 -0.09616293 0.08676929
